saved model/AfghanModel.pth (torch, 95597 bytes, 10 tensors)

lstm.weight_ih_l0 f4 [200, 6]
-0.019095916 -0.026482968 0.11139965 -0.0897381 -0.2950491 0.2696833 0.1785879 -0.062415585
0.07692964 -0.054721754 0.071769305 -0.056146182 0.12851666 0.076332875 -0.110766634 -0.06384534
-0.17176557 0.027441509 -0.011333889 -0.07150525 0.20574836 -0.092948705 -0.08467224 0.251622
0.224338 -0.09285161 -0.06688516 0.094256796 0.07922991 -0.08154144 -0.088978685 0.08133335
0.07721169 -0.23919943 -0.09962022 0.20444044 -0.19691828 -0.10831885 0.018830173 -0.19726746
-0.24097417 0.08517153 0.0026370909 -0.08462864 -0.08200127 -0.29373258 -0.27006507 0.12837411
-0.08075075 -0.086541206 0.017927049 0.111410916 -0.04187426 0.10725243 -0.10291662 0.045151744
-0.12192662 -0.00056898507 0.08875673 -0.064440526 -0.0005995849 0.11325813 -0.09195453 -0.07937961
-0.22267361 0.22365652 -0.01170464 -0.13609847 0.05000017 -0.13153185 -0.22002536 0.23802443
-0.03303312 -0.09107039 0.026627785 0.10858071 0.16398017 -0.15478057 -0.1418106 0.04469361
0.049099606 0.022163276 -0.15838763 0.09237242 -0.08941792 -0.022192419 0.011612925 -0.10468507
-0.14474043 0.233118 -0.18679717 -0.011174393 -0.0044313353 -0.09072968 -0.088314615 0.10683719
-0.2103687 -0.10371994 0.09155119 -0.107382454 -0.22762269 0.11202488 -0.01929971 -0.006360986
0.14757401 0.0013326948 -0.12371938 0.17923614 0.039542902 0.05677717 0.0461566 -0.0015425662
0.23178515 -0.22361703 -0.04048685 -0.017532514 0.06391455 -0.14713033 -0.13790819 -0.020332504
-0.042481266 -0.13736996 -0.06508697 -0.09518883 0.045257445 0.087848686 -0.037402313 0.032081574
0.009079017 -0.00034188302 -0.14044698 0.13079005 0.10304065 -0.03824933 0.048697483 0.13537273
0.077445984 0.07416945 0.025909366 0.004380278 0.10286223 0.14728326 -0.06707126 -0.12651536
0.09394581 0.07732722 0.20522831 -0.018793594 -0.16059716 0.21780811 -0.07523363 -0.017250074
0.04008139 -0.27936515 -0.24649397 0.22984418 0.09847964 -0.013956963 -0.07662871 0.12098536
0.09896759 -0.09941628 0.15456316 -0.13588929 0.02606332 0.05595943 -0.3465337 0.17111991
0.09827419 -0.021022301 -0.043747526 0.07650134 0.013104986 -0.1529712 -0.10466147 -0.02575234
-0.08132361 0.0393541 0.07544821 0.025957191 -0.052021556 0.11249883 0.11571843 -0.11092553
-0.033787537 -0.101008244 -0.14211154 -0.00026465952 -0.13183701 -0.061315708 0.12509279 0.022205615
0.09475758 0.07662484 0.089835 0.10232176 -0.035118174 0.059675675 -0.14379738 -0.05585847
-0.025324939 -0.090366066 -0.08276763 0.013202116 -0.003874805 0.12998377 0.066878416 -0.042344913
-0.061876927 0.08129035 0.078741 -0.10423588 -0.0075490563 -0.22720365 -0.22300099 0.15256973
-0.04553443 -0.09752449 -0.10856222 0.059190486 -0.10412271 0.086588785 0.08951639 -0.021164116
-0.109428085 -0.045961782 -0.051370755 0.06612175 0.12148287 0.09232419 -0.108624026 -0.026131194
-0.055198833 -0.122286595 0.0418407 -0.13565534 -0.0006893643 -0.04555573 -0.26016602 0.25629315
-0.010520135 -0.08314539 -0.055342928 -0.280765 -0.22041577 0.24779283 -0.07242028 -0.21519513
0.033653833 -0.20274319 -0.31784925 0.097916804 0.124820635 0.12711935 -0.065986104 0.12993285
00000000: 0a6f 9cbc cff2 d8bc 8025 e43d 9cc8 b7bd
00000010: ad10 97be ee13 8a3e bfdf 363e 7ca7 7fbd
00000020: 498d 9d3d eb23 60bd c9fb 923d 8af9 65bd
00000030: df99 033e 6954 9c3d 9ed9 e2bd 58c1 82bd
00000040: 50e3 2fbe 04cd e03c c7b1 39bc 5871 92bd
00000050: b3af 523e e45b bebd a468 adbd 99d4 803e
00000060: dcb8 653e fc28 bebd 16fb 88bd b509 c13d
00000070: 4b43 a23d 33ff a6bd 753a b6bd 1992 a63d
00000080: 2a21 9e3d b2f0 74be b005 ccbd d658 513e
00000090: f2a4 49be 46d6 ddbd bc41 9a3c 7b00 4abe
000000a0: efc1 76be 696e ae3d 0bd3 2c3b c851 adbd
000000b0: 48f0 a7bd 1e64 96be f845 8abe 8174 033e
000000c0: a660 a5bd 843c b1bd bfdb 923c 682b e43d
000000d0: 5884 2bbd 29a7 db3d f3c5 d2bd 09f1 383d
000000e0: aab4 f9bd f127 15ba 17c6 b53d 65f9 83bd
000000f0: 762d 1dba e1f3 e73d a852 bcbd c791 a2bd
00000100: 8d04 64be 3706 653e d2c4 3fbc 665d 0bbe
00000110: facc 4c3d 49b0 06be 544e 61be adbc 733e
00000120: bd4d 07bd 1d83 babd 8322 da3c 905f de3d
00000130: 6bea 273e cc7e 1ebe cc36 11be a610 373d
00000140: ab1c 493d c28f b53c 5e30 22be c02d bd3d
00000150: be20 b7bd e0cc b5bc 2344 3e3c 2065 d6bd
00000160: d636 14be 7cb6 6e3e c247 3fbe cd14 37bc
00000170: bc34 91bb 7cd0 b9bd 4bde b4bd 75cd da3d
00000180: e46a 57be 1f6b d4bd 317f bb3d 55eb dbbd
00000190: ec15 69be 4d6d e53d 6d1a 9ebc d16f d0bb
000001a0: a41d 173e d1ad ae3a 9660 fdbd ae89 373e
000001b0: bdf7 213d 2e8f 683d b40e 3d3d ef2f caba
000001c0: 1659 6d3e ddfb 64be 8ad5 25bd 59a0 8fbc
000001d0: a2e5 823d 55a9 16be ce37 0dbe 5a90 a6bc
000001e0: d600 2ebd b6aa 0cbe 514c 85bd 5cf2 c2bd
000001f0: df5f 393d 03ea b33d 2b33 19bd f867 033d
00000200: 28c0 143c c33e b3b9 55d1 0fbe d4ed 053e
00000210: fa06 d33d 54ab 1cbd 0377 473d 269f 0a3e
00000220: 009c 9e3d 27e6 973d e13f d43c 6f88 8f3b
00000230: 6fa9 d23d 6cd1 163e a85c 89bd 3e8d 01be
00000240: a966 c03d bc5d 9e3d 5f27 523e 06f5 99bc
00000250: 9573 24be 1709 5f3e 1714 9abd 0750 8dbc
00000260: 622c 243d f308 8fbe ea68 7cbe 465c 6b3e
00000270: b2af c93d bfab 64bc 83ef 9cbd 2cc7 f73d
00000280: 85af ca3d c39a cbbd ce45 1e3e 9026 0bbe
00000290: be82 d53c b735 653d dd6c b1be 0f3a 2f3e
000002a0: fb43 c93d f636 acbc 9b30 33bd bcac 9c3d
000002b0: 4cb6 563c 7ba4 1cbe c158 d6bd 92f6 d2bc
000002c0: fe8c a6bd c431 213d 9784 9a3d 2da4 d43c
000002d0: 8e14 55bd c965 e63d c9fd ec3d ed2c e3bd
000002e0: cd64 0abd 69dd cebd b085 11be 00c2 8ab9
000002f0: 4800 07be 2e26 7bbd 5318 003e 8de8 b53c
00000300: 4310 c23d 7ced 9c3d 6afb b73d 128e d13d
00000310: 13d8 0fbd 7b6e 743d 9f3f 13be dacb 64bd
00000320: 3f76 cfbc d811 b9bd 1382 a9bd b04d 583c
00000330: 71f0 7dbb 771a 053e 8df7 883d dc71 2dbd
00000340: a972 7dbd 8e7b a63d f642 a13d 9f79 d5bd
00000350: 135e f7bb 13a8 68be 5f5a 64be 3d3b 1c3e
00000360: 4f82 3abd ebba c7bd df55 debd b971 723d
00000370: 4a3e d5bd 7655 b13d 5e54 b73d 5e60 adbc
00000380: d51b e0bd 6c42 3cbd 246a 52bd d76a 873d
00000390: 03cc f83d 7714 bd3d 4676 debd 1611 d6bc
000003a0: 2c18 62bd 6571 fabd 2761 2b3d 3ce9 0abe
000003b0: 74b6 34ba a598 3abd 7b34 85be db38 833e
000003c0: a55c 2cbc 2148 aabd 44af 62bd 6ec0 8fbe
000003d0: acb4 61be 67bd 7d3e 1551 94bd 1d5c 5cbe
000003e0: 9ad8 093d e99b 4fbe 23bd a2be 9b88 c83d
000003f0: f6a1 ff3d 932b 023e b923 87bd 1e0d 053e

lstm.weight_hh_l0 f4 [200, 50]
0.19014916 0.115775265 0.036892522 -0.1247892 0.026150152 -0.041064397 0.0058618584 -0.16857612
0.0147168925 -0.030968998 0.005053114 0.11720609 0.111211054 -0.0017973946 -0.14697887 0.14841363
-0.07762677 0.0077808565 -0.13166642 0.032720007 -0.02859824 -0.060436983 -0.014462242 -0.07646252
-0.0010063358 -0.04065826 0.052577406 -0.013620997 -0.022279361 0.020393217 0.02538164 0.105861664
-0.060727205 0.19006582 0.033154353 0.08386858 -0.066621535 0.02569717 0.05719701 0.15097198
0.005958281 0.08868371 -0.10054764 0.01015374 -0.14844155 0.044778667 -0.15754227 0.07775629
-0.08884165 0.10686573 0.23989274 -0.060104415 0.06436046 0.012362945 0.13764504 0.11804479
0.16098385 -0.0050263377 -0.038049262 0.10897467 -0.030173505 -0.09573913 -0.04872605 -0.014824524
0.1066234 0.044038888 -0.039005958 0.09199744 0.08058295 0.042332526 -0.0263157 0.022288077
-0.045407116 -0.1366667 0.054259017 0.23886776 -0.10031428 0.11725712 -0.052742578 0.07529353
0.021862002 -0.12554595 -0.04255754 -0.07159698 0.053882185 -0.060334228 -0.12912887 0.00790586
-0.10757096 -0.09601928 -0.030255754 -0.18627208 -0.11063054 -7.185856e-05 0.17057408 0.06531129
-0.05704855 0.051136613 0.13343035 -0.01248399 -0.04461265 0.06251635 -0.050837476 -0.11178966
0.09117694 0.10194361 0.22618234 -0.05645088 -0.026813196 0.075549886 -0.21314877 -0.1839823
-0.034395505 -0.12978826 0.19959758 -0.20642991 -0.18348905 -0.051563878 -0.055302326 0.08730107
-0.017473893 0.014267556 0.09085443 -0.06433437 0.016314406 0.056606136 0.112271175 0.098575786
0.07790254 0.06435946 0.075011134 0.122977056 -0.105180755 0.08119766 0.1101678 -0.18738855
0.007887586 0.0025633841 -0.08790603 -0.07328827 0.12743759 -0.08033654 -0.07475474 0.042415313
0.15002818 0.2310421 0.07720987 0.19996275 0.0068357335 0.11685344 0.20261851 -0.11079402
0.108023584 0.019082952 -0.09790843 0.20274901 0.24781129 -0.02438402 -0.06263225 -0.038370717
-0.16289316 -0.0218198 -0.015038292 0.08109146 0.2193008 -0.0032335615 -0.2579175 0.05453925
0.13315767 -0.05515798 0.0024165304 0.10367448 -0.012263918 0.08317539 -0.019489678 0.26314098
-0.013842152 0.0026078285 0.13006254 0.13283251 0.009150813 -0.033111244 0.082187526 -0.12691347
-0.091875315 -0.19224235 -0.13291925 0.053752102 -0.122274056 -0.159727 0.09248679 -0.17714539
0.0048694625 -0.11554282 0.18890533 0.15455218 -0.07535632 0.22155382 0.0757165 -0.10482
-0.065560885 0.1777476 0.03893823 0.13879593 -0.019037023 0.07610925 -0.012618704 0.03591048
-0.090274505 0.15245822 0.112962425 -0.0491076 0.06204565 -0.05151626 0.26585335 -0.15111968
-0.10156144 -0.06494255 0.060107615 0.0018857105 -0.004383588 0.12363019 0.09371359 0.1320424
0.060411572 0.076430455 -0.04461674 -0.004398744 0.008924152 0.10781803 0.005955329 -0.012412963
-0.15113762 -0.18383344 -0.15066472 -0.20348607 0.026537087 -0.054423667 -0.16877672 0.08057967
-0.0414627 -0.11764472 -0.10413771 -0.051827606 -0.059089765 0.06521035 0.1231108 0.18950973
0.061585587 0.112780094 -0.016371485 -0.10311501 -0.09411209 -0.16706634 0.10513337 0.030695198
00000000: 76b6 423e 951b ed3d 9d1c 173d 7b91 ffbd
00000010: d838 d63c 2433 28bd d514 c03b 389f 2cbe
00000020: 1f1f 713c b2b2 fdbc 9894 a53b bf09 f03d
00000030: 9fc2 e33d 8e96 ebba a181 16be bef9 173e
00000040: c9fa 9ebd 8ef6 fe3b 90d3 06be 6a05 063d
00000050: db46 eabc c58c 77bd 0af3 6cbc 6298 9cbd
00000060: 07e7 83ba 4789 26bd 685b 573d 9a2a 5fbc
00000070: 3583 b6bc ad0f a73c 28ed cf3c 00ce d83d
00000080: 17bd 78bd 9da0 423e dccc 073d 4ac3 ab3d
00000090: df70 88bd df82 d23c 6947 6a3d 6698 1a3e
000000a0: af3d c33b ce9f b53d eceb cdbd df5b 263c
000000b0: 1001 18be d669 373d c352 21be b13e 9f3d
000000c0: 9cf2 b5bd 6bdc da3d 71a6 753e 0c30 76bd
000000d0: 6bcf 833d f38d 4a3c d2f2 0c3e 78c1 f13d
000000e0: f3d8 243e fab3 a4bb 8bd9 1bbd 1d2e df3d
000000f0: 6d2e f7bc e112 c4bd f794 47bd 8fe2 72bc
00000100: 5e5d da3d 1f62 343d b6c4 1fbd 2769 bc3d
00000110: ac08 a53d df64 2d3d 0694 d7bc 7c95 b63c
00000120: d0fc 39bd 5bf2 0bbe b43e 5e3d c099 743e
00000130: 9371 cdbd 8024 f03d 9a08 58bd 7f33 9a3d
00000140: f117 b33c 1e8f 00be d150 2ebd 70a1 92bd
00000150: 91b3 5c3d 0621 77bd 5c3a 04be 9587 013c
00000160: 2a4e dcbd c2a5 c4bd eada f7bc 1cbe 3ebe
00000170: 4492 e2bd c5b2 96b8 f9aa 2e3e edc1 853d
00000180: beab 69bd a074 513d f7a1 083e a689 4cbc
00000190: c1bb 36bd 9208 803d f53a 50bd faf1 e4bd
000001a0: faba ba3d d0c7 d03d 589c 673e 0a39 67bd
000001b0: 59a7 dbbc e6b9 9a3d ac43 5abe db65 3cbe
000001c0: 4de2 0cbd 37e7 04be 4f63 4c3e 5d62 53be
000001d0: 8ee4 3bbe a534 53bd b184 62bd e7ca b23d
000001e0: 6925 8fbc 78c2 693c e311 ba3d bdc1 83bd
000001f0: caa5 853c d6db 673d 6eee e53d 1ae2 c93d
00000200: 5e8b 9f3d e4ce 833d 709f 993d 65db fb3d
00000210: 0269 d7bd f54a a63d a89f e13d c9e2 3fbe
00000220: ef3a 013c 73fe 273b 1408 b4bd 2918 96bd
00000230: 007f 023e 7c87 a4bd 0319 99bd aebb 2d3d
00000240: fda0 193e 4d96 6c3e 3520 9e3d 09c3 4c3e
00000250: 4afe df3b db50 ef3d 3a7b 4f3e fae7 e2bd
00000260: 783b dd3d da53 9c3c 3784 c8bd 709d 4f3e
00000270: 3ec2 7d3e ffc0 c7bc 5645 80bd 9d2a 1dbd
00000280: 77cd 26be 70bf b2bc 2b63 76bc 4813 a63d
00000290: 6490 603e 29ea 53bb c30d 84be 8c64 5f3d
000002a0: 7c5a 083e 56ed 61bd a75e 1e3b 4953 d43d
000002b0: 9aee 48bc dc57 aa3d d1a8 9fbc 6aba 863e
000002c0: 32ca 62bc 1ae8 2a3b 1d2f 053e 3f05 083e
000002d0: 4bed 153c a89f 07bd ef51 a83d 9bf5 01be
000002e0: 2029 bcbd 2edb 44be fc1b 08be 2a2b 5c3d
000002f0: d26a fabd 7a8f 23be b769 bd3d 9a65 35be
00000300: 0390 9f3b b7a1 ecbd 6670 413e ed42 1e3e
00000310: 6a54 9abd 01df 623e 4111 9b3d deab d6bd
00000320: c944 86bd 7803 363e b27d 1f3d 8520 0e3e
00000330: 88f3 9bbc 2bdf 9b3d aebe 4ebc de16 133d
00000340: d7e1 b8bd 021e 1c3e d858 e73d 0d25 49bd
00000350: 9423 7e3d b702 53bd ee1d 883e 1ebf 1abe
00000360: 72ff cfbd 9a00 85bd 6733 763d f229 f73a
00000370: 34a4 8fbb d331 fd3d e9ec bf3d 1f36 073e
00000380: 2072 773d 9287 9c3d 0bc0 36bd 5723 90bb
00000390: 9b36 123c b3cf dc3d ec24 c33b be5f 4bbc
000003a0: d2c3 1abe d53e 3cbe da47 1abe a75e 50be
000003b0: 4e64 d93c 5aeb 5ebd ced3 2cbe f406 a53d
000003c0: cbd4 29bd b7ef f0bd 2746 d5bd 2f49 54bd
000003d0: 1c08 72bd 018d 853d 8421 fc3d d70e 423e
000003e0: 2b41 7c3d 40f9 e63d 7e1d 86bc f62d d3bd
000003f0: d7bd c0bd 7013 2bbe 2a50 d73d 7f74 fb3c

lstm.bias_ih_l0 f4 [200]
0.16429482 0.14255035 -0.051614605 0.1263486 0.11877785 0.013124266 0.042040635 0.0055503272
-0.050555214 0.020855976 0.10189771 0.013265152 0.091975756 0.1010461 -0.10545137 0.066669546
-0.09073832 0.15410675 -0.06652702 -0.023964848 0.08900356 -0.013076647 0.19773747 -0.03258322
0.23879023 0.055144146 0.112336256 0.04185938 0.113559894 -0.008422079 -0.09129476 0.056432262
-0.01602539 -0.14593077 0.073655486 0.14580102 0.106251396 -0.04400399 0.1577339 0.096560284
0.10882022 0.025924549 0.06994359 0.0026599627 -0.07190029 0.17072114 0.19136721 0.18412578
-0.12506558 0.014894818 0.12749955 0.14961 0.1321059 0.07821834 0.097514525 0.08677127
-0.08588945 0.20641434 0.048142403 0.041918915 -0.059496317 0.12255428 -0.045977272 -0.08348446
0.056722168 0.10256975 0.09897351 0.21652462 -0.077948734 -0.111333616 0.019173445 0.078673
0.18474945 0.032465417 0.05719947 0.12834527 0.14165898 0.09534819 0.04183663 -0.03996588
0.08454771 0.01691862 0.11304373 0.057921313 0.07109505 -0.047375176 -0.14356707 0.062706456
-0.058170922 -0.10335914 -0.002172785 0.080561996 0.043925952 -0.009676179 0.13213322 -0.064535044
0.040884465 0.14792043 -0.08313173 0.09831026 0.018979473 -0.0713224 0.0539051 0.00801647
0.021788891 0.08634222 0.009022533 0.0446893 -0.02681316 0.01518648 -0.07036215 -0.054138493
-0.028454745 0.033690568 0.082350425 -0.08409379 -0.0729018 -0.019211607 0.03475822 -0.069891706
-0.024309747 -0.0018327024 -0.07643699 0.036794983 -0.030455505 0.09654397 0.11942724 0.08098644
-0.04388901 0.14849587 -0.12051088 -0.004877826 -0.10574975 0.015090097 -0.09524402 -0.09316695
-0.06739301 0.08082115 0.094378695 0.129948 -0.05674065 -0.027034275 -0.089208595 0.010768578
0.121302806 0.08755967 -0.016589167 -0.04693866 0.076017626 -0.06349936 -0.023772916 0.10662286
-0.071649745 0.04663826 -0.037606593 0.08290555 -0.022413129 0.1741446 0.037260704 -0.03733792
0.060927395 0.04738878 -0.017547728 0.0027573132 -0.07136874 0.1456718 0.07159829 0.14271726
0.09388764 0.107083134 0.039723936 0.021321772 0.16506453 -0.04658598 0.1309993 0.13716795
0.014117681 0.0017544017 -0.08191339 -0.023253102 0.015569907 -0.023383815 0.03996218 -0.10867002
0.009607643 -0.04257378 0.11850486 -0.042194597 -0.041902874 0.09177432 -0.061765667 0.00059796474
0.027512373 0.0028814748 0.10905828 0.11988934 0.17318402 0.22236595 -0.06294111 -0.043172125
00000000: e73c 283e b8f8 113e d669 53bd 8761 013e
00000010: cd41 f33d 2907 573c cd32 2c3d 85df b53b
00000020: fc12 4fbd 27da aa3c bfaf d03d 1556 593c
00000030: c95d bc3d 42f1 ce3d e3f6 d7bd 0b8a 883d
00000040: 03d5 b9bd 29ce 1d3e 513f 88bd ee51 c4bc
00000050: 8047 b63d 6f3f 56bc b17b 4a3e fc75 05bd
00000060: 6d85 743e d4de 613d 8d10 e63d be74 2b3d
00000070: 1792 e83d c2fc 09bc bff8 babd 8425 673d
00000080: ae47 83bc e06e 15be b0d8 963d dd4c 153e
00000090: 559a d93d 873d 34bd ff84 213e 66c1 c53d
000000a0: 23dd de3d b85f d43c 963e 8f3d c552 2e3b
000000b0: 7640 93bd 86d1 2e3e c4f5 433e 788b 3c3e
000000c0: 3111 00be 6509 743c 3e8f 023e 5d33 193e
000000d0: c546 073e f030 a03d b2b5 c73d 23b5 b13d
000000e0: cfe6 afbd 485e 533e f830 453d 2bb3 2b3d
000000f0: 69b2 73bd bdfd fa3d aa52 3cbd e7f9 aabd
00000100: 8155 683d 1710 d23d a0b2 ca3d a1b8 5d3e
00000110: 96a3 9fbd e102 e4bd a111 9d3c 4f1f a13d
00000120: f62e 3d3e 75fa 043d fe49 6a3d f16c 033e
00000130: 0d0f 113e e945 c33d e35c 2b3d 43b3 23bd
00000140: 5a27 ad3d eb98 8a3c 7983 e73d e63e 6d3d
00000150: 489a 913d 790c 42bd 3f03 13be 3e6c 803d
00000160: a244 6ebd f5ad d3bd 4965 0ebb b0fd a43d
00000170: b3eb 333d d688 1ebc ee4d 073e f32a 84bd
00000180: 7876 273d 7478 173e f840 aabd e456 c93d
00000190: d77a 9b3c 7a11 92bd 98cb 5c3d 8357 033c
000001a0: 9e7e b23c 31d4 b03d 3fd3 133c 210c 373d
000001b0: 46a7 dbbc b7d0 783c 081a 90bd 53c0 5dbd
000001c0: ed19 e9bc 1fff 093d 57a7 a83d 5d39 acbd
000001d0: 8a4d 95bd a961 9dbc a35e 0e3d 6223 8fbd
000001e0: 3c25 c7bc 4a37 f0ba ff8a 9cbd 56b6 163d
000001f0: d37d f9bc d8b8 c53d 4596 f43d 38dc a53d
00000200: f6c4 33bd 4d0f 183e 69ce f6bd 2cd6 9fbb
00000210: 5393 d8bd 743c 773c 4c0f c3bd 50ce bebd
00000220: 5905 8abd 8f85 a53d 9e49 c13d 1711 053e
00000230: e268 68bd fc76 ddbc ffb2 b6bd b16e 303c
00000240: 9b6d f83d 7c52 b33d 01e6 87bc c142 40bd
00000250: 21af 9b3d f40b 82bd 6bbf c2bc 165d da3d
00000260: 1abd 92bd c307 3f3d 5f09 1abd 63ca a93d
00000270: bd9b b7bc f652 323e ae9e 183d a6ef 18bd
00000280: 018f 793d bd1a 423d 41c0 8fbc 0ab4 343b
00000290: c629 92bd fd2a 153e 20a2 923d 7924 123e
000002a0: 2a48 c03d 674e db3d 91b5 223d ffaa ae3c
000002b0: ad06 293e f1d0 3ebd ae24 063e c175 0c3e
000002c0: d94d 673c f4f3 e53a 35c2 a7bd 4a7d bebc
000002d0: ec18 7f3c 6a8f bfbc 62af 233d 638e debd
000002e0: 6069 1d3c d861 2ebd adb2 f23d 3ed4 2cbd
000002f0: 59a2 2bbd 2df4 bb3d fffd 7cbd bcc0 1c3a
00000300: a161 e13c 20d7 3c3b f359 df3d 8b88 f53d
00000310: 2757 313e e6b3 633e 45e7 80bd 41d5 30bd

lstm.bias_hh_l0 f4 [200]
0.18313566 0.13706523 0.17407423 0.18635961 0.18969093 0.14785193 -0.09390651 -0.081615336
0.103163436 -0.14641812 0.15688914 0.10428003 -0.016958987 -0.13673976 -0.12525617 0.14114498
-0.0795181 0.048904147 -0.08909333 0.09195922 -0.099851646 0.14294414 0.23571178 -0.014408138
0.100701705 -0.009519927 0.041486952 0.04823685 0.06256442 0.14410317 0.10956396 0.04443459
-0.05038889 0.031510003 0.23314697 0.1472469 -0.048703756 0.026443228 0.14127326 -0.10257244
0.067155205 -0.027273662 0.022261558 0.06013145 0.12732658 -0.056504752 0.11993952 -0.058867738
0.07068127 0.05867361 -0.06285793 0.086601235 0.06579715 0.2772163 -0.058897734 -0.0074455785
-0.11469223 0.07257348 0.0076758317 -0.1658216 -0.036702402 0.09413417 0.17598075 -0.09101042
0.09790028 -0.017764503 0.19042116 0.17299777 -0.027758207 0.06671753 0.049130686 0.16247237
0.23291278 0.09672554 0.14295666 -0.009949912 -0.0094317105 0.05277408 0.17195988 0.063364
-0.00819354 -0.13641384 0.035957642 0.022110231 0.22311659 0.056252796 0.08190834 -0.1280959
0.20018631 -0.10498329 0.0012650721 0.06190329 -0.04528443 0.12072206 0.045140956 0.05909617
-0.00014800657 -0.050288863 -0.063439965 0.05568509 -0.019888483 0.09396425 -0.0054498147 -0.029040601
0.06664772 0.03864446 0.091351695 0.07295095 0.0805082 0.10412567 -0.032121215 0.032640185
-0.07558764 0.055138297 -0.09553049 -0.105534054 0.06292497 -0.10879712 0.06457492 -0.0022169945
0.08339094 0.0109987 0.116210945 0.059403688 0.09225539 0.026635453 0.034114018 -0.077949
0.049909227 -0.124369435 0.05046448 -0.070485555 -0.013544889 -0.07349977 0.11444707 0.018041873
-0.045776792 0.04519752 -0.11445241 -0.084936224 0.11492563 -0.0739683 -0.12120865 0.11618027
0.06803285 0.089553624 0.07947222 0.09344259 0.07906259 0.07270334 0.12696186 0.01875739
-0.08294263 0.2560862 0.061841305 -0.045924395 0.09828357 0.012875917 0.03042389 0.09550103
-0.009888206 0.1179812 0.10972622 -0.097542934 0.028913908 -0.06990626 0.16613744 0.13687809
0.13724163 -0.0076158214 -0.115880996 0.129369 0.10147879 -0.057101242 0.18650164 0.1282715
-0.07133857 0.05019704 0.11951415 0.0074852007 0.10329791 -0.15591557 0.008052281 -0.1204929
0.10440299 0.13976997 -0.13140136 -0.037600666 -0.081574775 -0.06982851 0.09828614 -0.015041317
-0.055320244 0.19555569 0.12294085 -0.046666108 0.1840833 0.14414176 -0.082005925 0.05917524
00000000: ea87 3b3e d45a 0c3e 8440 323e 0ed5 3e3e
00000010: 573e 423e 7f66 173e 0e52 c0bd f125 a7bd
00000020: 5a47 d33d a2ee 15be 8ca7 203e c590 d53d
00000030: 93ed 8abc 8205 0cbe 2743 00be 4f88 103e
00000040: 63da a2bd b74f 483d 9076 b6bd 1e55 bc3d
00000050: 057f ccbd f35f 123e 6e5e 713e 1c10 6cbc
00000060: b23c ce3d 78f9 1bbc 39ee 293d 0194 453d
00000070: c621 803d c88f 133e 1263 e03d 0b01 363d
00000080: 9564 4ebd a210 013d 14be 6e3e e4c7 163e
00000090: 977d 47bd 789f d83c f0a9 103e 8011 d2bd
000000a0: ab88 893d 046d dfbc df5d b63c 654c 763d
000000b0: e661 023e 8771 67bd daa2 f53d 4c1f 71bd
000000c0: 57c1 903d bd53 703d a9bb 80bd fd5b b13d
000000d0: a8c0 863d 4bef 8d3e c03e 71bd 0afa f3bb
000000e0: c3e3 eabd 68a1 943d 8b85 fb3b 23cd 29be
000000f0: 4255 16bd 6ac9 c03d 4c34 343e ac63 babd
00000100: f17f c83d dd86 91bc c4fd 423e 5426 313e
00000110: 2e65 e3bc 33a3 883d 423d 493d 285f 263e
00000120: b080 6e3e 0a18 c63d 3b63 123e f504 23bc
00000130: 7687 1abc a229 583d 4016 303e fcc4 813d
00000140: 333e 06bc 12b0 0bbe 5248 133d 8420 b53c
00000150: ad78 643e 5569 663d 8fbf a73d 922b 03be
00000160: a4fd 4c3e 7b01 d7bd c7d0 a53a 4e8e 7d3d
00000170: 2b7c 39bd 213d f73d b9e5 383d d30e 723d
00000180: 3632 1bb9 b2fb 4dbd d0ec 81bd 0d16 643d
00000190: 2ced a2bc 5470 c03d 5c94 b2bb 8ee6 edbc
000001a0: 9a7e 883d a749 1e3d 9916 bb3d 4f67 953d
000001b0: 7ce1 a43d d73f d53d 8991 03bd b7b1 053d
000001c0: b1cd 9abd b2d8 613d 7da5 c3bd 3d22 d8bd
000001d0: cfde 803d 06d1 debd db3f 843d ff4a 11bb
000001e0: dfc8 aa3d e433 343c 0100 ee3d 4851 733d
000001f0: 65f0 bc3d 9832 da3c 24bb 0b3d baa3 9fbd
00000200: 9e6d 4c3d 67b5 febd d8b3 4e3d bb5a 90bd
00000210: 62eb 5dbc 0c87 96bd 3a63 ea3d 8dcc 933c
00000220: 7280 3bbd 0921 393d 0666 eabd 0bf3 adbd
00000230: 215e eb3d b17c 97bd 3e3c f8bd ecef ed3d
00000240: cf54 8b3d e467 b73d 55c2 a23d d45e bf3d
00000250: 91eb a13d 7de5 943d 4a02 023e 19a9 993c
00000260: d3dd a9bd bb1d 833e 4f4d 7d3d 381b 3cbd
00000270: e548 c93d 83f5 523c 863b f93c 0b96 c33d
00000280: 2402 22bc 21a0 f13d 24b8 e03d 97c4 c7bd
00000290: dcdc ec3c 032b 8fbd ef1f 2a3e c529 0c3e
000002a0: 1289 0c3e 248e f9bb 0453 edbd 4f79 043e
000002b0: 1dd4 cf3d fee2 69bd 49fa 3e3e 9b59 033e
000002c0: f519 92bd 699b 4d3d d6c3 f43d 6a46 f53b
000002d0: db8d d33d 55a8 1fbe b7ed 033c fbc4 f6bd
000002e0: 3cd1 d53d dc1f 0f3e 148e 06be 2803 1abd
000002f0: ad10 a7bd 4002 8fbd 3e4a c93d db6f 76bc
00000300: 7b97 62bd c03f 483e 6ac8 fb3d f624 3fbd
00000310: 5580 3c3e e699 133e b9f2 a7bd bd61 723d

lstm.weight_ih_l0_reverse f4 [200, 6]
0.08457708 0.02602262 0.1341995 0.059328657 0.020611437 -0.013603577 -0.0025020014 -0.007997313
0.14546554 0.06823383 0.13645124 -0.04221431 0.26633978 0.05783366 0.31040123 0.28581926
0.14807545 0.034989655 0.24668612 0.18355 0.063059166 0.07785227 0.080585375 -0.057163496
-0.004025989 0.028578384 0.09574428 0.008089784 0.050065022 0.06795662 0.16843161 0.25128728
0.20595033 0.04814076 -0.14107919 0.14231166 0.02823534 0.011518609 -0.057868186 -0.04172323
-0.051641982 -0.15180448 0.19502726 0.0759218 0.063701466 0.16996941 -0.015786342 0.10846073
0.24887806 0.13170576 0.062182724 0.17676775 -0.043924756 -0.017798629 0.21738416 0.20304757
0.088550374 0.08787468 0.24032031 -0.087990314 0.2902668 0.042098816 0.18893865 0.27913046
0.20666856 -0.28998095 -0.040437445 -0.024854982 0.185418 0.019419486 0.0053770053 0.19255897
0.09650294 0.03083095 0.07135368 0.20646784 0.13269249 -0.16270345 0.2499024 0.13756938
0.15283224 0.115743056 0.049727336 -0.13893354 0.24826257 -0.002928688 0.017711556 0.29807225
0.3049988 -0.3536246 0.1923004 0.082528576 0.18026105 0.0742969 0.088990666 -0.054153625
0.12980272 -0.018134449 0.08501156 -0.009265349 -0.10661466 0.22157425 0.15511274 -0.013882484
0.21135806 0.06784177 -0.030063506 0.31448197 0.23533426 0.03791203 0.06724303 0.15227152
0.24836512 -0.13605137 0.22736277 0.2917491 0.18354778 0.14678822 0.06003291 0.15501434
-0.007258172 -0.13961634 0.061414305 0.12769869 -0.0920295 0.10585864 -0.028229363 -0.23114692
0.09614505 -0.2148201 -0.13616802 0.043098677 0.11298827 0.08472096 0.27820617 0.33376876
-0.040512357 0.032485854 0.31055608 0.25779203 0.16654436 0.19153194 0.10674641 0.06813135
0.11195792 0.117726 0.24920884 -0.025425926 -0.19305336 0.046902057 -0.10073863 0.034356628
0.10405372 0.12514773 -0.07436105 -0.10890433 0.20378108 0.0030771985 0.0011708878 0.049355954
-0.20155916 0.14266233 -0.033058688 -0.1747238 -0.048201334 -0.22896203 -0.23689368 0.1667097
0.174734 0.071201645 0.0083760675 0.1566384 -0.13738866 0.10505801 0.08881044 -0.20281133
-0.057684924 0.003919283 -0.055117767 0.1024367 0.18545286 0.08574598 0.001958657 0.20844439
0.11422398 -0.15307255 0.074916564 -0.13745481 0.16327974 -0.03119068 -0.095832646 0.031498563
0.10673407 0.105005965 0.22927049 0.2504179 -0.018121602 0.09582798 0.070960134 0.13802464
-0.024943344 0.036368463 -0.050758347 0.1634842 0.17215325 0.041295424 0.101520516 -0.039534286
0.050254237 0.089500666 0.118128225 0.21982814 0.10791661 0.09265005 0.28567922 -0.25847304
0.24509439 0.20220618 0.24497066 -0.004209328 0.038656592 -0.081690766 0.042279147 0.06186504
0.122929424 0.19661722 0.2844594 -0.14962776 0.0074830735 -0.25757247 0.023333734 0.08906507
0.018269278 0.0017469486 -0.017356299 -0.16539367 -0.041077204 -0.124906495 -0.16259891 0.27684
0.18379596 0.032576665 0.16808107 0.1921085 -0.009426471 0.03489895 0.14336239 -0.14322959
0.22067899 -0.028755067 -0.1660361 0.2539451 0.14722815 -0.0018833284 0.17744176 0.093593396
00000000: c036 ad3d 642d d53c 986b 093e 9b02 733d
00000010: 51d9 a83c 8ae1 5ebc 9ef8 23bb 2907 03bc
00000020: ebf4 143e 2ebe 8b3d e0b9 0b3e eae8 2cbd
00000030: b05d 883e fde2 6c3d e9ec 9e3e e756 923e
00000040: 17a1 173e 5051 0f3d 499b 7c3e 88f4 3b3e
00000050: 2a25 813d 0371 9f3d f209 a53d 4524 6abd
00000060: 72ec 83bb 371d ea3c 9415 c43d 038b 043c
00000070: fb10 4d3d d72c 8b3d 5679 2c3e baa8 803e
00000080: a5e4 523e 3f2f 453d 1077 10be 26ba 113e
00000090: cd4d e73c 8cb8 3c3c 3107 6dbd fae5 2abd
000000a0: 8b86 53bd a272 1bbe 3ab5 473e e47c 9b3d
000000b0: ea75 823d 760c 2e3e 5c52 81bc a920 de3d
000000c0: e4d9 7e3e e0dd 063e 50b3 7e3d 9b02 353e
000000d0: 72ea 33bd 6ece 91bc f499 5e3e b4eb 4f3e
000000e0: e659 b53d a4f7 b33d 8716 763e 4434 b4bd
000000f0: da9d 943e cf6f 2c3d 2279 413e 30ea 8e3e
00000100: eca0 533e 6278 94be bca1 25bd ad9c cbbc
00000110: 37de 3d3e 9d15 9f3c 9731 b03b 2e2e 453e
00000120: 55a3 c53d 3091 fc3c e121 923d 4e6c 533e
00000130: 8ae0 073e bc9b 26be 6ae6 7f3e fdde 0c3e
00000140: 0e80 1c3e b20a ed3d e4ae 4b3d 9844 0ebe
00000150: 8b38 7e3e 3bef 3fbb d317 913c ed9c 983e
00000160: cd28 9c3e 490e b5be 65ea 443e be04 a93d
00000170: 5a96 383e f928 983d bd40 b63d 31d0 5dbd
00000180: 01eb 043e b28e 94bc 8a1a ae3d b1cd 17bc
00000190: c958 dabd 5ce4 623e e0d5 1e3e 5c73 63bc
000001a0: 3f6e 583e a0f0 8a3d be47 f6bc c803 a13e
000001b0: 77fb 703e a549 1b3d b7b6 893d 11ed 1b3e
000001c0: 6d53 7e3e 0d51 0bbe c9d1 683e 2360 953e
000001d0: f3f3 3b3e a74f 163e 12e5 753d 14bc 1e3e
000001e0: f6d5 edbb 96f7 0ebe 918d 7b3d 72c3 023e
000001f0: f679 bcbd 6acc d83d 4441 e7bc c7b1 6cbe
00000200: b2e7 c43d cdf9 5bbe a16f 0bbe 3d88 303d
00000210: 6566 e73d 2f82 ad3d 0a71 8e3e bde3 aa3e
00000220: 49f0 25bd e30f 053d 3501 9f3e 51fd 833e
00000230: 9b8a 2a3e f320 443e dd9d da3d 7388 8b3d
00000240: 324a e53d 541a f13d 9a30 7f3e 084a d0bc
00000250: c8af 45be 5f1c 403d 0e50 cebd 89b9 0c3d
00000260: 1e1a d53d ba26 003e 9b4a 98bd 3c09 dfbd
00000270: fdab 503e d3aa 493b 7a78 993a 7829 4a3d
00000280: 8665 4ebe 1316 123e 8c68 07bd ccea 32be
00000290: c36e 45bd 0675 6abe 4294 72be f3b5 2a3e
000002a0: 78ed 323e 2bd2 913d c63b 093c d165 203e
000002b0: 9daf 0cbe a728 d73d 3fe2 b53d c6ad 4fbe
000002c0: 0747 6cbd 546d 803b 2bc3 61bd 55ca d13d
000002d0: 5be7 3d3e 979b af3d d05c 003b 7272 553e
000002e0: 43ee e93d 0dbf 1cbe db6d 993d f4c0 0cbe
000002f0: ce32 273e 9983 ffbc e843 c4bd a304 013d
00000300: 6497 da3d 5e0d d73d e2c5 6a3e c636 803e
00000310: c173 94bc 7641 c43d 8c53 913d 5556 0d3e
00000320: fc55 ccbc 19f7 143d fce7 4fbd 6768 273e
00000330: f148 303e 6425 293d fde9 cf3d b4ee 21bd
00000340: 63d7 4d3d 204c b73d 36ed f13d a11a 613e
00000350: 6203 dd3d 4fbf bd3d 8c44 923e 9456 84be
00000360: 06fa 7a3e 230f 4f3e 97d9 7a3e 67ee 89bb
00000370: 6056 1e3d 7d4d a7bd e62c 2d3d 3266 7d3d
00000380: 6cc2 fb3d 0656 493e aaa4 913e 0538 19be
00000390: 9234 f53b 8ae0 83be 6326 bf3c bf67 b63d
000003a0: 74a9 953c def9 e43a cc2e 8ebc f55c 29be
000003b0: 9240 28bd face ffbd 5480 26be f9bd 8d3e
000003c0: 0235 3c3e 1c6f 053d 721d 2c3e 17b8 443e
000003d0: 7c71 1abc 34f2 0e3d 97cd 123e c7aa 12be
000003e0: acf9 613e bf8f ebbc 5e05 2abe 1805 823e
000003f0: fac2 163e 04da f6ba 4bb3 353e e5ad bf3d

lstm.weight_hh_l0_reverse f4 [200, 50]
0.06614855 -0.06249594 0.1561119 0.08261574 0.010618961 -0.044903714 0.078965314 0.12917607
-0.13476802 -0.15051517 -0.021898746 0.25463784 0.039192613 -0.020825692 0.17777625 0.033077084
0.010418188 -0.2275203 0.12395673 -0.021004027 -0.30610135 0.24990802 0.032528196 -0.20979924
0.33968672 0.021492127 -0.08539971 0.17528984 -0.004906883 0.15449278 -0.12165745 -0.26747447
0.16762789 -0.04449384 -0.06452291 -0.07015823 -0.09718134 -0.0817373 0.029982658 0.29919457
0.0015317694 0.2151229 0.12071024 0.101772495 0.10692934 0.058887858 -0.13342471 0.13712366
0.14836514 -0.07706335 -0.16265531 0.06057695 0.19650784 0.17453602 -0.010591663 -0.04695541
0.0050716954 0.07365228 0.20693946 -0.15389024 -0.11395698 0.07423836 -0.12167776 -0.0056313365
-0.062347494 -0.20634553 -0.11881572 -0.0020265451 0.2100551 -0.17994909 -0.16290472 0.107566945
0.17041674 0.07819136 0.013491625 -0.14103937 -0.09878011 0.16379155 -0.048344072 -0.06892571
0.08068124 -0.109652616 0.14713955 -0.03867341 0.0878825 -0.07917609 -0.06567649 0.03924226
-0.07540031 0.08580989 -0.01432125 -0.08959003 -0.07315181 0.12393522 -0.21028624 -0.049145695
-0.04195159 0.1465929 0.03235126 -0.068208344 0.031681083 0.05588387 0.2310295 0.0795316
0.11196607 0.014534085 0.025767216 -0.046586666 -0.10992516 -0.12201218 -0.15730444 0.014342834
-0.21132645 0.040626522 0.11956891 -0.020552156 0.05206261 -0.11138456 0.102893606 0.09886735
-0.093770355 0.2650749 0.094526015 -0.11121183 0.15271005 -0.14596125 0.06977163 0.12689772
-0.16502328 0.033094082 -0.13924873 -0.14067845 0.14730683 -0.18550952 0.0016006914 -0.17288819
-0.12623928 -0.20133379 -0.10806696 0.26321623 -0.16305158 0.24385396 0.1775582 0.01980928
0.03129321 -0.026036942 -0.032712176 0.046105754 0.04589188 -0.18069637 -0.0816349 -0.21271557
0.18045852 0.15546006 -0.09607672 0.044948094 -0.045289975 -0.107973024 -0.12743743 -0.14298938
-0.17110065 0.119147554 0.047450826 0.100910895 0.20323512 -0.1928032 -0.15514676 -0.1260003
-0.0041386867 0.042352512 -0.160989 0.106467284 -0.027898856 -0.0010935008 0.2752137 -0.2114701
0.020150542 0.09356802 -0.21666901 0.23848589 -0.10077181 -0.11732359 0.16002056 -0.10021119
-0.1261544 0.027826862 -0.17455511 -0.21440612 -0.01598931 0.26702586 -0.06863631 0.28788733
0.0059785107 -0.028366726 0.15657598 -0.07136921 -0.15998709 -0.05432972 -0.046418082 -0.106542476
-0.0015502232 0.03136563 0.121368915 -0.09797428 -0.086367466 0.018106854 -0.05410777 0.0665975
0.035744853 -0.067711495 -0.15052703 0.21963184 -0.052677296 0.09775536 0.007804867 -0.17692868
-0.04920782 -0.16860776 0.07617411 -0.07193968 -0.040740523 0.15469894 0.08634537 0.0045694276
0.14980447 -0.17095837 0.042916797 0.16897798 -0.039765757 0.035300255 -0.11320451 -0.15628338
0.08004636 0.036982168 -0.009244438 -0.18892401 -0.1514795 -0.19818358 0.19138573 0.09340236
-0.03887445 0.19044107 0.06346198 0.14920919 -0.008949804 -0.03813246 -0.052828692 -0.0062353103
-0.12820365 0.017107595 -0.07816993 0.0029798802 0.04890095 0.10092413 0.20250589 -0.14402764
00000000: e478 873d befb 7fbd ccdb 1f3e 7132 a93d
00000010: 27fb 2d3c f5ec 37bd 91b8 a13d bb46 043e
00000020: a100 0abe a620 1abe 0065 b3bc e45f 823e
00000030: 6f88 203d a49a aabc fa0a 363e d67b 073d
00000040: 0cb1 2a3c 15fb 68be 07dd fd3d a310 acbc
00000050: 51b9 9cbe e3e7 7f3e 493c 053d 9dd5 56be
00000060: 6beb ad3e 4210 b03c 0be6 aebd 2e7f 333e
00000070: ebc9 a0bb 5b33 1e3e 8b27 f9bd 6af2 88be
00000080: a5a6 2b3e 2c3f 36bd 9624 84bd 1eaf 8fbd
00000090: 0307 c7bd e365 a7bd 319e f53c 0830 993e
000000a0: a7c5 c83a 2d49 5c3e ee36 f73d 196e d03d
000000b0: c5fd da3d 6534 713d 7da0 08be 256a 0c3e
000000c0: 08ed 173e 64d3 9dbd 1d8f 26be 891f 783d
000000d0: 5a39 493e 92b9 323e a888 2dbc 5154 40bd
000000e0: 7730 a63b 02d7 963d f0e7 533e 6795 1dbe
000000f0: 4762 e9bd 480a 983d 3032 f9bd 1387 b8bb
00000100: 1660 7fbd 3e4c 53be a855 f3bd c9cf 04bb
00000110: af18 573e 9344 38be 7fd0 26be 0f4c dc3d
00000120: ba81 2e3e cb22 a03d fa0b 5d3c a06c 10be
00000130: 3a4d cabd f9b8 273e 6f04 46bd ec28 8dbd
00000140: 353c a53d 8d91 e0bd c0ab 163e 0268 1ebd
00000150: bdfb b33d 1327 a2bd 6581 86bd 7ebc 203d
00000160: 7a6b 9abd 18bd af3d ada3 6abc fa7a b7bd
00000170: 9ed0 95bd c0d1 fd3d 4755 57be ff4c 49bd
00000180: 6ed5 2bbd 731c 163e c182 043d d1b0 8bbd
00000190: 06c4 013d 7ce6 643d ff92 6c3e 77e1 a23d
000001a0: 784e e53d 5f20 6e3c c515 d33c a9d1 3ebd
000001b0: 7120 e1bd 86e1 f9bd 6a14 21be 35fe 6a3c
000001c0: f665 58be ff67 263d 8be0 f43d ff5c a8bc
000001d0: 9a3f 553d 971d e4bd e2b9 d23d f77a ca3d
000001e0: ac0a c0bd e6b7 873e db96 c13d 07c3 e3bd
000001f0: 0660 1c3e de76 15be 6ee4 8e3d 7af1 013e
00000200: ddfb 28be a98d 073d 3897 0ebe 030e 10be
00000210: 9ad7 163e 35f6 3dbe 4ace d13a 9a09 31be
00000220: df44 01be 722a 4ebe 3652 ddbd 47c4 863e
00000230: fef6 26be dab4 793e d1d1 353e 1247 a23c
00000240: 4f2d 003d 6d4b d5bc 34fd 05bd 63d9 3c3d
00000250: 20f9 3b3d 7808 39be 3330 a7bd 1cd2 59be
00000260: 1eca 383e ec30 1f3e dfc3 c4bd 7e1b 383d
00000270: fb81 39bd f620 ddbd f57e 02be cf6b 12be
00000280: 0235 2fbe a203 f43d cc5b 423d 5faa ce3d
00000290: de1c 503e 346e 45be cbde 1ebe 3906 01be
000002a0: d29d 87bb d479 2d3d 4dda 24be 850b da3d
000002b0: 248c e4bc cc53 8fba cfe8 8c3e 9e8b 58be
000002c0: c012 a53c 97a0 bf3d 7bde 5dbe a535 743e
000002d0: 7361 cebd 5a47 f0bd 6edc 233e 863b cdbd
000002e0: 9e2e 01be 29f5 e33c 93be 32be 478d 5bbe
000002f0: 03fc 82bc 9db7 883e 3291 8cbd f865 933e
00000300: 62e7 c33b 5661 e8bc 7455 203e 052a 92bd
00000310: a8d3 23be d788 5ebd e320 3ebd f132 dabd
00000320: dc30 cbba 3f79 003d 4490 f83d bda6 c8bd
00000330: 6de1 b0bd d354 943c 1ca0 5dbd 4564 883d
00000340: 3269 123d 53ac 8abd c223 1abe 2be7 603e
00000350: 26c4 57bd f633 c83d f8bf ff3b cb2c 35be
00000360: 248e 49bd 83a7 2cbe 2c01 9c3d 1c55 93bd
00000370: 89df 26bd 6669 1e3e d7d5 b03d 23bb 953b
00000380: 5866 193e b60f 2fbe 86c9 2f3d 9008 2d3e
00000390: 6be1 22bd 0097 103d c4d7 e7bd c008 20be
000003a0: 59ef a33d 9d7a 173d fc75 17bc 4c75 41be
000003b0: 711d 1bbe a3f0 4abe 9ffa 433e bd49 bf3d
000003c0: d13a 1fbd fc02 433e 5bf8 813d 4bca 183e
000003d0: 33a2 12bc c830 1cbd e662 58bd 9351 ccbb
000003e0: d147 03be 3a25 8c3c 8e17 a0bd 184a 433b
000003f0: 5d4c 483d 4fb1 ce3d b45d 4f3e fb7b 13be

lstm.bias_ih_l0_reverse f4 [200]
0.18518287 -0.099549085 0.103046335 0.05518242 0.23424348 0.16099827 0.019202571 0.27705705
0.103001304 0.17068502 -0.023823222 0.069732495 -0.113135055 0.17840831 0.072251774 0.020349909
0.035322968 0.24165033 0.066881835 0.10666445 -0.10222923 0.027065614 -0.0070882817 0.22616804
0.12127365 0.019374633 0.009268992 -0.052044727 0.074397765 -0.077026635 -0.011825926 0.21468568
0.1097163 -0.04299292 0.21611343 0.06511936 0.13022797 -0.04221296 -0.07889931 -4.3779168e-05
0.24398108 0.03785272 0.2553312 0.039944343 0.29508892 0.018117098 0.24320048 0.2271004
0.16350538 -0.07573759 0.09136924 -0.040429477 0.13324998 0.047843784 0.12748882 -0.020634672
-0.07507268 0.11289517 0.013741553 -0.062341347 0.051359855 0.05115369 -0.0394111 0.07037444
0.015415236 -0.060824975 0.17859314 0.24797666 0.19146563 -0.045641493 -0.016587736 0.110039316
-0.07097017 0.018537205 0.32860315 -0.07576186 0.01727397 0.16458786 -0.07982197 0.18490908
-0.005806022 0.006954434 0.1068078 0.14540535 -0.061385583 -0.09728109 0.033010744 0.014132341
0.018897275 0.01628585 0.117565036 0.0679273 0.124644786 0.04794802 0.20300372 0.17184806
0.24452236 0.07651172 0.02974307 0.12582952 0.005350561 0.090713136 0.12553936 0.0041212216
-0.056604195 -0.09805839 -0.10103647 -0.12904528 0.036261447 -0.063007966 0.11750124 0.010582345
-0.06969561 0.023019688 0.05002985 0.05581167 -0.03802098 -0.07708656 0.06814459 -0.032679096
-0.083018124 0.111097366 -0.049467348 0.044638265 0.0064048157 -0.06318331 0.0026161533 0.026710577
-0.116924636 0.039291296 -0.023324762 -0.13587394 0.03331392 -0.048843738 -0.047828544 -0.037616473
0.043612663 -0.08550817 -0.07724171 0.018140089 0.019036064 0.035772853 0.05766579 -0.0077061076
-0.048517674 0.115322605 0.061816204 -0.053875193 -0.10503559 -0.09935483 0.23242079 0.072733015
0.015170253 0.1857506 -0.00028786616 0.23506975 -0.013814439 0.06614209 0.057004992 0.047576766
0.054912426 0.12106515 -0.0057511902 0.13427773 -0.122142166 -0.0024841176 0.102842905 0.12751167
0.0790617 0.16695255 0.07927775 0.0965305 0.009346313 0.11831632 0.17037547 -0.13671517
0.11870678 0.01403718 0.032396503 -0.023949528 -0.041828416 0.020835422 0.022128185 0.015106183
0.06857016 0.15576613 0.0949499 -0.005915298 -0.034462377 -0.079629816 0.03782309 0.040295273
0.10101181 -0.11698175 0.050132457 0.11412234 0.057116732 0.16882503 0.06832993 0.07410088
00000000: 94a0 3d3e 64e0 cbbd f509 d33d f606 623d
00000010: 86dd 6f3e bbdc 243e b64e 9d3c 6cda 8d3e
00000020: 59f2 d23d 0ec8 2e3e eb28 c3bc e9cf 8e3d
00000030: 5ab3 e7bd abb0 363e bdf8 933d dab4 a63c
00000040: d1ae 103d 2f73 773e 58f9 883d e472 da3d
00000050: 8f5d d1bd b5b8 dd3c d144 e8bb 9898 673e
00000060: 525e f83d 8db7 9e3c f8dc 173c da2c 55bd
00000070: db5d 983d 24c0 9dbd 87c1 41bc 90d6 5b3e
00000080: f1b2 e03d 5819 30bd d74c 5d3e 4d5d 853d
00000090: 7b5a 053e 7fe7 2cbd f695 a1bd 869f 37b8
000000a0: 2dd6 793e 740b 1b3d c5ba 823e ae9c 233d
000000b0: e515 973e 4f6a 943c 8c09 793e 028d 683e
000000c0: f46d 273e 4f1c 9bbd cc1f bb3d 6199 25bd
000000d0: af72 083e d8f7 433d 6e8c 023e 0b0a a9bc
000000e0: b5bf 99bd 9535 e73d 4024 613c a459 7fbd
000000f0: b65e 523d 8886 513d 896d 21bd 7920 903d
00000100: 3090 7c3c 9c23 79bd 1fe1 363e 98ed 7d3e
00000110: 910f 443e 93f2 3abd 01e3 87bc 4b5c e13d
00000120: cf58 91bd 56db 973c ac3e a83e 0929 9bbd
00000130: 2482 8d3c b889 283e b379 a3bd ce58 3d3e
00000140: 7140 bebb 05e2 e33b 0cbe da3d 24e5 143e
00000150: 736f 7bbd 4f3b c7bd 4636 073d 568b 673c
00000160: 75ce 9a3c e769 853c f0c5 f03d 781d 8b3d
00000170: c445 ff3d 2565 443d 35e0 4f3e f0f8 2f3e
00000180: 1264 7a3e 2db2 9c3d bda7 f33c 74d9 003e
00000190: c253 af3b cfc7 b93d 648d 003e 500b 873b
000001a0: cdd9 67bd d6d2 c8bd 35ec cebd 7224 04be
000001b0: e286 143d 520a 81bd 7da4 f03d 9261 2d3c
000001c0: 92bc 8ebd c993 bc3c 1aec 4c3d c79a 643d
000001d0: e3bb 1bbd 8fdf 9dbd 648f 8b3d 84da 05bd
000001e0: 6805 aabd 0487 e33d 469e 4abd 9dd6 363d
000001f0: 7ddf d13b 4066 81bd c573 2b3b 24d0 da3c
00000200: 2f76 efbd e9ef 203d 9213 bfbc 8a22 0bbe
00000210: 2d74 083d 5f10 48bd dde7 43bd bb13 1abd
00000220: 31a3 323d e81e afbd e730 9ebd 869a 943c
00000230: 85f1 9b3c 8e86 123d f732 6c3d 8483 fcbb
00000240: 78ba 46bd 422e ec3d fd32 7d3d 3cac 5cbd
00000250: e61c d7bd 8c7a cbbd b7ff 6d3e 0cf5 943d
00000260: a78c 783c 6835 3e3e beec 96b9 20b6 703e
00000270: f555 62bc 8175 873d 117e 693d dbdf 423d
00000280: daeb 603d 01f1 f73d 7b74 bcbb 1a80 093e
00000290: ac25 fabd 94cc 22bb 4d9f d23d 6b92 023e
000002a0: 1aeb a13d 9cf5 2a3e 5f5c a23d c8b1 c53d
000002b0: 4721 193c d44f f23d e876 2e3e 10ff 0bbe
000002c0: 8a1c f33d 33fc 653c 32b2 043d cd31 c4bc
000002d0: 4654 2bbd 0caf aa3c 2b46 b53c ec7f 773c
000002e0: 836e 8c3d 2881 1f3e 1875 c23d 1ed5 c1bb
000002f0: 6c28 0dbd f514 a3bd 62ec 1a3d a80c 253d
00000300: 48df ce3d 2194 efbd b157 4d3d f9b8 e93d
00000310: 3cf3 693d 78e0 2c3e 90f0 8b3d 34c2 973d

lstm.bias_hh_l0_reverse f4 [200]
0.15321603 0.13088264 0.073644884 0.1968637 0.20391072 0.056069452 0.07672047 0.026834454
0.19063494 0.059670895 0.04513959 0.015974347 -0.00853873 -0.009108326 -0.033421792 0.01744873
0.24308157 0.13537095 0.21505475 0.15656987 0.120855026 0.17288539 0.0634896 0.115748264
0.14997736 -0.023588242 0.18173566 0.17627999 0.1985092 -0.07081817 0.06308066 0.16379388
-0.06530326 0.019359665 0.053152923 0.011132151 0.013330359 0.018145788 -0.112829305 -0.10723255
0.26719728 -0.029097829 0.23036845 -0.033977676 0.06585119 0.04726211 0.04330903 0.2725178
0.09718467 -0.0048231864 0.09177783 -0.13387972 0.021369953 0.1865942 -0.026461564 0.03235106
-0.09926111 0.1222201 0.17896762 0.08065417 0.14340982 -0.008514746 -0.029660156 -0.02721213
-0.080798045 0.08612142 -0.0022778579 0.13864918 -0.023786768 0.047590926 -0.002391174 -0.08291703
-0.08237697 0.082707465 0.14172722 -0.04360038 -0.06217866 -0.034625135 0.15632015 -0.04198707
-0.12539497 -0.024087472 0.043405198 -0.080894634 0.05565107 -0.0084314635 -0.09221154 -0.07893376
0.018707667 -0.05354802 -0.030215925 0.07781384 0.13135412 0.029832782 0.0090093585 0.018965824
0.2002404 0.16957562 0.038211726 0.09078265 -0.035020642 -0.1000394 -0.13728967 0.039147247
0.024077531 -0.038767368 0.11630779 0.01817215 -0.07632414 0.085899726 -0.10001697 0.13889502
0.019450853 0.08502323 0.016785309 -0.12073527 -0.098744914 -0.0072800545 -0.13859457 0.12276251
-0.14935943 0.114479944 -0.05918232 0.026654094 -0.06075959 -0.051447887 0.12836368 0.08662151
-0.06390798 0.037502244 0.011302086 -0.027471904 -0.03121116 -0.036732886 -0.04024565 0.012901529
-0.002338357 0.05310106 0.10220762 0.0899944 0.008084808 0.047578163 0.037433527 0.06615319
0.08955144 -0.0940385 -0.15272482 0.043432463 0.006576043 -0.14673723 0.16029556 0.07492828
0.075547636 0.036940094 0.22779134 0.17110874 0.131475 0.072354645 0.18178576 0.10812152
-0.04291065 0.18792164 0.056268763 -0.022834651 0.059600282 0.09048249 -0.006480776 0.23835069
0.14647785 0.3004252 -0.072237596 -0.0883174 0.2024947 0.078344986 0.33236882 0.030636339
0.09072707 -0.07042835 0.16081366 0.11590615 0.1297828 0.2109104 -0.069288105 -0.037417065
-0.04305952 0.17260446 0.19939438 0.11509253 -0.05032851 0.0072682975 0.03347233 0.24000841
0.23745736 0.010162419 0.090301655 0.069063075 0.2082412 0.1278 0.30821773 0.14658032
00000000: aae4 1c3e 1906 063e 21d3 963d a396 493e
00000010: f9cd 503e 15a9 653d 9f1f 9d3d eed3 db3c
00000020: ce35 433e 7869 743d 4ae4 383d a2dc 823c
00000030: 08e6 0bbc 173b 15bc 4ae5 08bd a4f0 8e3c
00000040: 60ea 783e af9e 0a3e 5037 5c3e da53 203e
00000050: d782 f73d de08 313e d606 823d 6d0d ed3d
00000060: aa93 193e 213c c1bc ea18 3a3e be82 343e
00000070: ff45 4b3e 1e09 91bd 6f30 813d 95b9 273e
00000080: b7bd 85bd 2998 9e3c e1b6 593d a063 363c
00000090: 9467 5a3c 7aa6 943c 0d13 e7bd bd9c dbbd
000000a0: 15ce 883e 925e eebc b5e5 6b3e 2d2c 0bbd
000000b0: fddc 863d ea95 413d cf64 313d 7487 8b3e
000000c0: c208 c73d d20b 9ebb 04f6 bb3d c417 09be
000000d0: 0a10 af3c 8d12 3f3e ecc5 d8bc 8c82 043d
000000e0: 6949 cbbd 884e fa3d 4a43 373e 032e a53d
000000f0: 06da 123e 6f81 0bbc dbf9 f2bc f9eb debc
00000100: 7279 a5bd 6d60 b03d 1d48 15bb 0dfa 0d3e
00000110: 78dc c2bc b4ee 423d 3eb5 1cbb 67d0 a9bd
00000120: 42b5 a8bd 8862 a93d f120 113e 5096 32bd
00000130: 0daf 7ebd 16d3 0dbd 6412 203e a2fa 2bbd
00000140: 8a67 00be 1753 c5bc a6c9 313d 16ac a5bd
00000150: 60f2 633d 1f24 0abc 67d9 bcbd 06a8 a1bd
00000160: d240 993c 2b55 5bbd 6387 f7bc dd5c 9f3d
00000170: b281 063e e163 f43c fd9b 133c 375e 9b3c
00000180: d20b 4d3e 3ba5 2d3e e683 1c3d 41ec b93d
00000190: ce71 0fbd 75e1 ccbd aa95 0cbe dd58 203d
000001a0: 3e3e c53c 88ca 1ebd c732 ee3d c3dd 943c
000001b0: d54f 9cbd 32ec af3d b2d5 ccbd 7f3a 0e3e
000001c0: 6557 9f3c a920 ae3d 5881 893c 0e44 f7bd
000001d0: c63a cabd 868d eebb bceb 0dbe e96a fb3d
000001e0: aef1 18be 7674 ea3d 2969 72bd b059 da3c
000001f0: 0cdf 78bd 05bb 52bd c571 033e 9e66 b13d
00000200: 30e2 82bd f49b 193d 622c 393c c20c e1bc
00000210: 8cae ffbc 3975 16bd 9fd8 24bd ef60 533c
00000220: 1f3f 19bb 7f80 593d 3b52 d13d fc4e b83d
00000230: 2476 043c 52e1 423d e653 193d 537b 873d
00000240: bf66 b73d 4297 c0bd e563 1cbe 3de6 313d
00000250: d97b d73b 4942 16be 8524 243e 0074 993d
00000260: b8b8 9a3d 7f4e 173d 2242 693e 2137 2f3e
00000270: 62a1 063e ac2e 943d 0c26 3a3e d16e dd3d
00000280: 14c3 2fbd 886e 403e 137a 663d bc0f bbbc
00000290: 6d1f 743d e24e b93d b05c d4bb 3412 743e
000002a0: 4afe 153e 55d1 993e 4ef1 93bd c1df b4bd
000002b0: c55a 4f3e 5673 a03d 3f2c aa3e 0ff9 fa3c
000002c0: 1dcf b93d bd3c 90bd 56ac 243e 3460 ed3d
000002d0: c8e5 043e e5f8 573e ece6 8dbd a342 19bd
000002e0: 2e5f 30bd 39bf 303e 0a2e 4c3e a2b5 eb3d
000002f0: 4525 4ebd e62a ee3b 481a 093d c4c4 753e
00000300: 0628 733e 4680 263c 13f0 b83d f170 8d3d
00000310: 2e3d 553e 01de 023e b7ce 9d3e 2719 163e

fc.weight f4 [2, 100]
-0.096545115 -0.0041925227 -0.12923546 -0.06216454 -0.049348786 0.1447676 0.07372617 0.1396909
-0.09212365 -0.046516024 -0.08695869 -0.060476243 0.055714495 -0.042679362 0.07547693 -0.10773447
-0.11793399 0.0368542 0.11249681 0.078520484 -0.022941792 -0.0013634983 0.048575487 -0.06165466
0.040518556 0.16719359 -0.036383603 0.2285761 -0.1023456 -0.0035028895 0.039565876 -0.07420156
0.095847405 -0.14371054 0.13518567 -0.023575284 -0.10300442 -0.074377015 -0.05932034 -0.07764163
0.1410012 -0.12941024 0.018546937 -0.10302252 0.048396442 0.07790363 0.024445307 -0.09026292
0.079131655 -0.0017065485 0.15146025 0.115310155 -0.19295351 -0.09792452 -0.10170035 0.14285827
-0.12584393 -0.22324029 -0.20202233 0.17132904 0.15326437 0.15000333 0.04970516 -0.15915458
-0.04152311 0.12544414 0.07655505 -0.02016361 -0.10358919 0.15546404 -0.16623452 0.105500944
-0.05143099 0.110974684 0.097817615 0.024741894 -0.020014983 0.16330819 -0.14208435 0.1293417
0.04796743 -0.07313663 0.04475778 0.101130605 -0.20263892 0.048779532 0.04627305 -0.09972062
0.09657313 0.08745366 0.16117173 0.18586329 0.17208911 0.013159525 0.15894338 0.1035493
0.08398486 -0.100879155 -0.13456346 -0.04312916 0.09609381 0.026178284 0.13553497 -0.062170696
-0.06827923 -0.15932268 -0.16386038 -0.05675242 0.023578217 -0.0003746355 0.12656935 0.05613711
8.4635874e-05 0.02059814 -0.13589841 0.056860905 0.12481234 0.13975933 0.052699532 0.0405806
0.013237346 0.15488805 0.14050476 0.04860318 -0.049719356 -0.027972585 0.018782033 -0.24787743
0.07744069 0.09085155 -0.06097996 -0.07591858 -0.08383425 -0.037198637 -0.13366567 0.032180917
0.0013522629 0.046784088 -0.05934896 0.10233814 -0.12885728 0.15482183 -0.0130041 0.008640639
-0.057327345 -0.09132474 -0.0731171 -0.068168856 -0.1372295 -0.09086109 -0.098050766 -0.0350874
0.05323657 0.15934934 0.15556218 -0.091438055 0.042182047 0.0744251 0.20433621 -0.027177813
-0.06693753 -0.04108927 -0.061930764 -0.0022900517 0.048876457 -0.12559512 -0.09918818 0.15676017
0.17088532 -0.17299615 0.09940054 -0.15051259 0.10614083 -0.17948195 -0.06256184 0.023990123
0.13983802 -0.065251015 0.16310841 -0.12350331 -0.0686597 0.07794477 -0.10996639 -0.033626597
0.08786614 -0.12242907 -0.111996114 -0.05779101 0.0031147434 -0.0848777 -0.15581645 -0.20198391
-0.20852417 0.08753088 -0.22067925 -0.09755326 -0.110240646 0.16067618 0.20395744 -0.06896371
00000000: 72b9 c5bd 6e61 89bb 4d56 04be 3fa0 7ebd
00000010: f421 4abd f53d 143e bffd 963d 220b 0f3e
00000020: 53ab bcbd 9687 3ebd 6617 b2bd f0b5 77bd
00000030: e234 643d 8ed0 2ebd a693 9a3d e4a3 dcbd
00000040: 6087 f1bd 6ef4 163d ba64 e63d 59cf a03d
00000050: 6df0 bbbc 69b7 b2ba 17f7 463d 9989 7cbd
00000060: c9f6 253d cc34 2b3e f906 15bd da0f 6a3e
00000070: 929a d1bd bc90 65bb d40f 223d fdf6 97bd
00000080: a54b c43d db28 13be 1d6e 0a3e f420 c1bc
00000090: fbf3 d2bd fa52 98bd e3f9 72bd 9302 9fbd
000000a0: 9e62 103e 1e84 04be bfef 973c 79fd d2bd
000000b0: 593b 463d f08b 9f3d 8641 c83c c4db b8bd
000000c0: c70f a23d 44ae dfba 6518 1b3e bb27 ec3d
000000d0: 9b95 45be a78c c8bd 4648 d0bd 7049 123e
000000e0: 3bdd 00be 1a99 64be f1de 4ebe e170 2f3e
000000f0: 56f1 1c3e 799a 193e a397 4b3d 6bf9 22be
00000100: 2314 2abd 6e74 003e e5c8 9c3d 282e a5bc
00000110: 9226 d4bd f731 1f3e 6239 2abe e110 d83d
00000120: 4da9 52bd b246 e33d 9a54 c83d 83af ca3c
00000130: 76f6 a3bc 433a 273e 8f7e 11be 2772 043e
00000140: 7f79 443d a8c8 95bd ef53 373d 901d cf3d
00000150: 9480 4fbe 0ccd 473d cf88 3d3d 533a ccbd
00000160: 22c8 c53d e81a b33d 340a 253e f252 3e3e
00000170: 2138 303e 0c9b 573c 0ec2 223e a811 d43d
00000180: 4100 ac3d bb99 cebd 01cb 09be 34a8 30bd
00000190: d5cc c43d d773 d63c aec9 0a3e b3a6 7ebd
000001a0: fbd5 8bbd 7c25 23be 04cb 27be 3a75 68bd
000001b0: 1b27 c13c ba6a c4b9 659b 013e 07f0 653d
000001c0: 8a7e b138 6ebd a83c f428 0bbe fbe6 683d
000001d0: 9d9d ff3d 121d 0f3e 77db 573d d837 263d
000001e0: 74e1 583c f99a 1e3e 7be0 0f3e 2114 473d
000001f0: 86a6 4bbd c326 e5bc c7dc 993c 95d3 7dbe
00000200: 3999 9e3d 6110 ba3d 1fc6 79bd 337b 9bbd
00000210: 4bb1 abbd 995d 18bd a7df 08be 23d0 033d
00000220: 6a3e b13a aca0 3f3d e517 73bd a996 d13d
00000230: 2af3 03be 9d89 1e3e 260f 55bc 7791 0d3c
00000240: 14d0 6abd 7708 bbbd 6bbe 95bd 1d9c 8bbd
00000250: e485 0cbe 6115 babd d7ce c8bd ceb7 0fbd
00000260: 970e 5a3d 792c 233e b14b 1f3e e043 bbbd
00000270: 15c7 2c3d 306c 983d 833d 513e 01a4 debc
00000280: 8b16 89bd 394d 28bd 1dab 7dbd b114 16bb
00000290: ae32 483d 029c 00be 2c23 cbbd bd85 203e
000002a0: 90fc 2e3e e725 31be 8392 cb3d f91f 1abe
000002b0: 5d60 d93d 1eca 37be 6c20 80bd ef86 c43c
000002c0: b331 0f3e 53a2 85bd e405 273e 4eef fcbd
000002d0: 759d 8cbd 82a1 9f3d 0f36 e1bd 0bbc 09bd
000002e0: 2af3 b33d 18bc fabd 385e e5bd 44b6 6cbd
000002f0: b920 4c3b 5cd4 adbd 598e 1fbe dfd4 4ebe
00000300: 5c87 55be 6443 b33d bef9 61be 01ca c7bd
00000310: d9c5 e1bd 4c88 243e 38da 503e d83c 8dbd

fc.bias f4 [2]
0.038246877 -0.06469124
00000000: c2a8 1c3d d77c 84bd
